outputs/policy.pt (torch, 4030 bytes, 5 tensors)

weight f4 [16, 5]
000000 f3 08 6e 3c 78 39 81 bc 2d 4d 96 3a 97 57 a5 3c
       0.014528501 -0.015774474 0.0011467092 0.020183368
000010 c3 41 b5 bc ad 0d 82 3c b7 57 7c bc c0 2e 4e bb
       -0.022126084 0.015875662 -0.015401772 -0.003146097
000020 c1 b2 8f 3c 29 a6 0a ba 1f 01 61 bc 48 7a b3 bb
       0.017541291 -0.0005289042 -0.013733177 -0.0054772235
000030 ef 04 3f bc 9f 3f 16 3b e2 50 fd bb 41 93 b6 ba
       -0.011658891 0.0022926105 -0.0077305892 -0.0013929383
000040 f1 f7 52 bc d0 94 86 ba b9 f1 fc 3c 98 1d 63 3b
       -0.012876497 -0.0010267738 0.030876981 0.003465509
000050 9e 5a 88 3c be c9 28 bc 77 e2 a4 3c c0 59 fc 3b
       0.016644772 -0.010302005 0.020127518 0.0077011287
000060 ca 60 ca 3b 69 f4 96 ba e8 e1 06 bd 4f ec a7 bc
       0.006176089 -0.0011516932 -0.032930285 -0.020498423
000070 8a f9 95 bc 97 9b b4 bb fe 7b a1 3b 9f 46 9b bb
       -0.018307466 -0.005511712 0.004928111 -0.0047386433
000080 96 99 2b bc 1b ed 20 bc 85 0c 13 bc ae b3 01 bb
       -0.010473629 -0.009822155 -0.008975153 -0.0019790935
000090 68 3e ca 3c 04 47 dd 3b f3 1e 9b bb bc 62 1e 3c
       0.02468796 0.0067528505 -0.004733914 0.009667095
0000a0 bb 2c 8f bc 81 f0 eb ba 1c fd f2 bb 99 44 db bb
       -0.017477384 -0.0018000753 -0.007415427 -0.006691527
0000b0 2b 80 72 bc 1f 0f 82 3c 14 fa 50 3c 75 a5 24 3b
       -0.014801065 0.01587635 0.012754936 0.0025123034
0000c0 9c b2 27 3c a2 7d 5c 3b 23 9b 8c 3b 81 ab ee ba
       0.010235455 0.003364422 0.0042909547 -0.0018209071
0000d0 f3 ee 65 bc ee 01 de bb b4 2b cb bc 4a fb eb bb
       -0.014034021 -0.0067751324 -0.024801113 -0.007201587
0000e0 1d 68 03 bb 71 0c cc 3b f2 96 9b 3c b7 9f 1c 3b
       -0.002005107 0.006227069 0.018992875 0.0023898908
0000f0 eb bc 4a 3b bd ae a9 bb 42 8b 95 bc 8c d1 ff bb
       0.0030935358 -0.005178301 -0.01825488 -0.0078069624
000100 e0 ae ca bc c9 33 86 3b 42 2c 23 ba 63 41 54 bc
       -0.02474159 0.0040955287 -0.00062245515 -0.0129550425
000110 b9 76 b6 bb 31 d4 31 bc 98 4e d8 bc 98 b4 da ba
       -0.005568352 -0.010853813 -0.026404664 -0.0016685901
000120 1d 09 87 bc c8 fa 86 bc 2d 3c 56 bc e6 e4 64 3c
       -0.016483838 -0.016477004 -0.01307587 0.013970589
000130 0b 88 b3 b9 f4 6a af 3c 27 00 89 bc 10 9e 11 bc
       -0.000342429 0.021413304 -0.016723705 -0.008887783

bias f4 [16]
000000 a2 b0 04 bc 6a 53 0e 3c 05 1d d4 bb 81 86 1c bc
       -0.008098753 0.00868688 -0.006473186 -0.009553553
000010 35 3b 5d 3c 25 5a c7 bb 2e d7 3b 3c 8b e2 b2 bc
       0.013502886 -0.006083744 0.011464877 -0.02183654
000020 5e 35 56 3b 74 2d 87 3b 0a 90 89 bc 3d be 99 bb
       0.0032685618 0.0041252915 -0.016792316 -0.0046918676
000030 95 5a a7 bb 3a 3d 68 bb 49 db 9d bc d0 d4 84 bb
       -0.0051072338 -0.0035436885 -0.019269602 -0.0040536895

weight f4 [3, 16]
000000 3b b5 84 3b 7a 97 d3 3d ad d7 78 bd be 2e 2c be
       0.0040499247 0.10331626 -0.06075256 -0.16814706
000010 4e 9e 35 3c d6 11 86 3e 0e 5b 11 be 30 d6 81 be
       0.011085106 0.26185483 -0.14194891 -0.25358725
000020 58 76 77 3e fb 00 49 bd d0 bf 82 be eb 12 07 be
       0.24166238 -0.0490732 -0.25536966 -0.1319081
000030 d3 66 51 bd b6 3c e4 bd be 1a e9 bc 55 da 55 3e
       -0.05112345 -0.11144392 -0.028455134 0.20884068
000040 31 d4 35 3e 1d 95 46 3c a0 93 a8 3d 8a 58 f4 3d
       0.17756726 0.012120512 0.08231282 0.1193095
000050 b0 6a 5f bd 6c d6 ee bd 44 d4 c9 bd f4 1d 01 3e
       -0.054545105 -0.116619915 -0.098549396 0.12609082
000060 ee 10 06 be 1d 5a ee bc 0e 59 1a 3e f3 37 a2 bc
       -0.13092396 -0.029095704 0.15073034 -0.01980207
000070 c9 28 63 bd b5 28 7d bd 1e a0 6e 3e ab 8b 18 3d
       -0.055458818 -0.0618064 0.23303267 0.037242573
000080 42 ce 81 3d 9e a6 1b be d2 27 33 bc a7 d2 0d be
       0.06338169 -0.15200278 -0.010934787 -0.13849889
000090 2b a8 31 be 21 29 46 3e ec 86 ad bd b2 43 24 3d
       -0.17349307 0.19351627 -0.08473 0.04010362
0000a0 60 ec 56 3c 80 f7 71 3e a5 c1 a8 3d 5b 13 a0 3d
       0.01311788 0.2362957 0.0824006 0.07816192
0000b0 d3 0e 4e be de 43 52 be 72 8c 4a be c2 b1 9d bd
       -0.20122842 -0.20533702 -0.19780138 -0.0769992

bias f4 [3]
000000 c5 88 84 be 36 54 60 3e 3f aa 1d 3d
       -0.25885597 0.21907124 0.038492437

weight f4 [1, 16]
000000 48 f2 31 be c0 ea 22 3d 4e 8c 3e 3e b8 eb 67 3d
       -0.17377579 0.039774656 0.1860821 0.056621283
000010 f4 45 1b be 24 69 8e 3d b8 b4 3b 3d 40 29 ff 3c
       -0.15163404 0.06953648 0.045826644 0.0311476
000020 f2 78 13 be 5c fc 04 be 2c a9 39 3e 0c 62 b1 bd
       -0.14401606 -0.12986892 0.1813094 -0.08661279
000030 c2 88 21 be 62 4e 04 be c0 6f 42 3c a6 18 44 be
       -0.15774825 -0.12920526 0.011867464 -0.19150028
