outputs/policy2.pt (torch, 4040 bytes, 5 tensors)

weight f4 [16, 5]
000000 10 12 1d 3c 2b ab 97 3c b8 19 21 3c 3b 28 0b 3c
       0.009586826 0.018514236 0.009832792 0.008493478
000010 0b 4e 81 bb 8b cb 18 bc ee 84 5d bc ac 64 56 bb
       -0.003946071 -0.009325872 -0.013520462 -0.0032713814
000020 86 23 bc bb e9 42 82 bb 6f 1b 81 bc d9 ba 09 3c
       -0.0057415394 -0.0039752615 -0.015760152 0.008406364
000030 aa 21 db bb 4e 46 ec bc 92 0b a9 3b 72 8e fd b9
       -0.0066873627 -0.028842118 0.00515885 -0.0004836205
000040 4b b5 49 3c 87 bb a7 b9 47 06 ba 3b cb ea 70 3c
       0.01231129 -0.0003199244 0.005677018 0.0147044165
000050 57 62 18 bc 99 17 90 bb f3 d9 cf bb f3 39 c0 bc
       -0.00930079 -0.0043973443 -0.0063431202 -0.023465132
000060 d0 39 a0 bc 48 d0 8a 3c b1 80 0d 3c d2 2a 97 bb
       -0.019558817 0.01694502 0.008636639 -0.004613259
000070 59 11 53 bc 25 2b 88 39 31 74 04 3b dd bc 28 3c
       -0.012882554 0.00025972087 0.0020210857 0.010298935
000080 53 69 22 bc 6c 44 ed bc 7f a5 1f bc 4c 8b ea 3b
       -0.009912807 -0.02896329 -0.009744047 0.0071577188
000090 b4 89 98 bb b9 70 51 bb f2 0f d4 ba 44 4c 2a bc
       -0.0046550874 -0.0031958057 -0.0016179068 -0.01039416
0000a0 47 a7 16 b8 e2 3b d7 3c f4 f7 27 3b 71 d9 53 3c
       -3.5918576e-05 0.026273672 0.002562997 0.01293026
0000b0 19 83 ae bb 22 5a 98 bc 8a 01 a5 bc a3 d0 82 bc
       -0.0053256867 -0.018597666 -0.020142335 -0.015968626
0000c0 68 cf 21 bc 7b 42 d8 bb e9 60 4a 3c d8 e4 6b 3c
       -0.00987611 -0.006599722 0.012352207 0.014397822
0000d0 b8 bc 9d bc 3c f2 5a bb 51 1a c2 bc d8 f5 60 ba
       -0.019255027 -0.0033408543 -0.02369419 -0.00085815554
0000e0 86 2d 8d bb 80 49 40 bc 50 7e 0c bc 00 19 f1 ba
       -0.0043084053 -0.011736274 -0.008575037 -0.0018394291
0000f0 dc 42 9c bb 31 a5 f0 bb 4f 84 cd bb 5f f0 a4 b9
       -0.0047687124 -0.007343911 -0.006271876 -0.00031459608
000100 7c f8 8f bb 5e 7b a0 bb 47 44 34 bd c6 66 e4 3a
       -0.0043936353 -0.004897519 -0.044010427 0.0017425648
000110 b3 be c8 3c 3b a0 41 3c db 4a 15 bc c7 85 82 bb
       0.024504995 0.011817987 -0.009112085 -0.0039832327
000120 0a 3c 93 bc a2 b8 23 bc cf 46 d9 ba 04 cc 22 bc
       -0.017972965 -0.00999275 -0.0016576889 -0.009936336
000130 a9 d7 8c 3b a6 b9 6b 3c 98 dc 4f 3c 63 d8 76 3b
       0.0042981696 0.014387524 0.012686871 0.0037665598

bias f4 [16]
000000 96 c6 da bb 27 d1 c9 ba 66 1c c0 bc 82 fb d0 3c
       -0.0066765053 -0.0015397415 -0.023451041 0.025510553
000010 69 95 63 bc 05 e0 30 3c 83 5d e2 bb 19 01 1d bb
       -0.013890603 0.010795598 -0.00690812 -0.0023956953
000020 d7 13 af 3c 61 d2 95 bc 93 48 ac 3c 6b 7f ff 37
       0.021371765 -0.018288793 0.0210307 3.0457702e-05
000030 3f 40 69 bc 76 bd 8e b9 8e c5 96 3c 8a 13 45 bc
       -0.014236509 -0.0002722551 0.018404748 -0.012028584

weight f4 [3, 16]
000000 e5 58 35 be 36 5f 7e 3e dc a1 23 be 0b 9c 2e be
       -0.17709692 0.24841008 -0.15979713 -0.17051713
000010 83 c8 70 be 05 58 39 3e 51 19 c8 bc ce e9 77 be
       -0.23513989 0.18099983 -0.024426134 -0.24210283
000020 4d 73 80 be 2d 06 c7 bd 8d 58 a8 3d 50 a9 8d bd
       -0.25087968 -0.09717975 0.08220015 -0.069170594
000030 9a a2 0e be 3a 6b 87 bc 2c f4 5b 3e d4 11 71 3d
       -0.13929215 -0.016530622 0.21479863 0.058854893
000040 8c 2e a2 3a 60 1d 05 be 12 5a f1 3c 1f 9c 3f be
       0.0012373491 -0.12999487 0.029461894 -0.18711899
000050 24 bf 49 3e 6a 05 6e be 73 de 17 3e 48 9e 61 bd
       0.1970182 -0.23244253 0.14830951 -0.05508259
000060 70 d0 40 3c 7d 6f f3 bd c2 67 52 3e 90 79 e9 bc
       0.011768445 -0.11886499 0.20547393 -0.028500348
000070 5a cd 02 3e 3f 25 3a 3d d0 3e 13 3e 51 96 6e 3e
       0.12773648 0.045445677 0.1437943 0.23299529
000080 2d d3 30 3d 94 a2 06 3e f9 ac 9e 3c fb 58 67 3e
       0.043170143 0.13147956 0.01936959 0.22592537
000090 37 20 5f be c7 73 f6 bd 02 5f bb bd 80 b9 63 bb
       -0.21789633 -0.120338015 -0.09148981 -0.0034748018
0000a0 0c dd 62 3d 2b 9b 5c bc d3 ad 84 3e b8 a1 4d 3e
       0.055386588 -0.013464729 0.25913867 0.20081222
0000b0 0d 45 21 3d e1 c6 b6 bd e0 59 33 bc 03 0b c7 3b
       0.039372493 -0.08924652 -0.010946721 0.0060743107

bias f4 [3]
000000 31 c1 c9 bd e3 6e 62 3e 02 b5 6e be
       -0.098513015 0.22112612 -0.23311237

weight f4 [1, 16]
000000 8a 78 6c 3e e6 2d 6c be 54 ef b7 3d e2 14 62 be
       0.23092857 -0.23064384 0.08981195 -0.22078279
000010 44 b2 10 3e 08 b7 af bd 4e bf 11 3e 4c 83 d0 3d
       0.14130503 -0.08579832 0.14233133 0.10181293
000020 68 60 65 be 30 82 df 3d ec 5d f1 3d 5c 92 81 3d
       -0.22400057 0.10913503 0.11785492 0.06326744
000030 d4 1f be bd d4 db 8d bd 3c 03 c0 3d 56 53 4a 3e
       -0.092834145 -0.069266945 0.09375617 0.19758353
